method/mymodel-yelp/save/1557667911/dis_model_params.pkl (torch_old, 124322 bytes, 5 tensors)

fc1.weight f4 [100, 256]
0	0x3e249091	0.16070773
1	0x3d920267	0.071293645
2	0x3d992fa3	0.07479789
3	0xbded789d	-0.11595271
4	0xbb6b1f2f	-0.0035876741
5	0x3a1b586b	0.0005925956
6	0xbdb35419	-0.08756275
7	0x3dacdd64	0.084406644
8	0x3d895a10	0.06706631
9	0xbe638976	-0.22220406
10	0x3ba0498e	0.004891581
11	0x3de226e0	0.11042571
12	0xbe31d0a3	-0.17364745
13	0xbdaddbcb	-0.08489188
14	0xbd38986d	-0.04506724
15	0x3e101f05	0.14074333
16	0xbd306ca3	-0.043072354
17	0xbe053ccc	-0.13011473
18	0xbe1f7f63	-0.15575938
19	0x3c0ee0ef	0.008720621
20	0xbddb6fd2	-0.107146874
21	0x3e0e54ba	0.13899508
22	0x3e5970dc	0.21234459
23	0xbdb6d4a9	-0.089272805
24	0xbdb37ca9	-0.087640114
25	0x3ae0c5df	0.0017148814
26	0x3d87bc81	0.06627751
27	0xba2064b7	-0.00061185233
28	0xbe14d718	-0.14535177
29	0xbe41aef4	-0.18914396
30	0xbdc81fe5	-0.097717084
31	0xbdb24bc3	-0.08705857
32	0xbe2b7c65	-0.16746671
33	0xbd61814f	-0.05505496
34	0xbe93d50a	-0.28873473
35	0x3d5a89ab	0.053353947
36	0xbd3236c1	-0.04350925
37	0xbe116dbf	-0.14202021
38	0xbe12d4b1	-0.14338948
39	0xbe33ab32	-0.17545775
40	0x3e4c287f	0.19937323
41	0xbdc2d7a7	-0.09513789
42	0xbcc2a014	-0.023757972
43	0x3de1d0f5	0.110261835
44	0xbe0bdc21	-0.13658191
45	0x3e285395	0.16438134
46	0xbdf4befc	-0.1195049
47	0x3e4f9d39	0.2027482
48	0xbd306487	-0.04306462
49	0xbea01bb2	-0.3127113
50	0xbe3a766e	-0.1820924
51	0xbddd185f	-0.10795664
52	0xbe151011	-0.1455691
53	0x3e14f780	0.14547539
54	0xbdb766c3	-0.08955147
55	0x3ce5c5fe	0.028048512
56	0x3dadd63c	0.084881276
57	0xbe70fbee	-0.23533604
58	0xbc478982	-0.0121787805
59	0x3eb6534b	0.35610422
60	0xbd6cd5df	-0.05782115
61	0x3d79dea7	0.061003353
62	0x3d4764f4	0.04868026
63	0x3e430f51	0.19048811
64	0xbe819b7a	-0.25313932
65	0xbda72a58	-0.08162373
66	0xbd6d695d	-0.05796181
67	0xbee6b6fc	-0.4506148
68	0x3e89fce4	0.26950753
69	0xbe062bb7	-0.13102613
70	0xbd5df8b0	-0.054192245
71	0xbe6470c7	-0.22308646
72	0xbdef5cb8	-0.116876066
73	0xbd6b7da7	-0.05749288
74	0xbe8b3976	-0.27192277
75	0x3ceb4494	0.028719224
76	0x3d1df537	0.038563933
77	0xbe9dc7da	-0.30816537
78	0x3e120016	0.14257845
79	0x3e96979b	0.2941254
80	0x3e880924	0.26569474
81	0xbe46f6ea	-0.19430128
82	0xbc3a71f7	-0.01137971
83	0x3c73a830	0.014871642
84	0x3e38e466	0.18055877
85	0x3e77ca04	0.24198157
86	0xbd9a88c1	-0.07545615
87	0x3e959294	0.29213393
88	0x3d9e066c	0.077160686
89	0xbd1203a4	-0.035648003
90	0xbc3dc431	-0.01158242
91	0xbea3e592	-0.32011086
92	0xbd6d738b	-0.05797152
93	0xbe8f965e	-0.2804441
94	0x3d35b025	0.044357438
95	0x3d286b7a	0.041118123
96	0x3e8a553f	0.27018163
97	0x3e328fb1	0.17437626
98	0x3e0c00d2	0.13672188
99	0xbdbe69a2	-0.092974916
100	0x3e4eeedc	0.20208305
101	0x3ddc5791	0.107588895
102	0xbe8d78ec	-0.2763132
103	0xbe01f73c	-0.12691969
104	0xbd24ef01	-0.040266994
105	0x3c9be9b2	0.019032333
106	0xbd9beb02	-0.076131836
107	0xbe4b068b	-0.19826715
108	0xbd95d134	-0.07315293
109	0xba6cf9fb	-0.00090399355
110	0x3e51068c	0.20412654
111	0x3e20d612	0.15706661
112	0x3deab5ac	0.114604324
113	0x3c4b52dd	0.012409893
114	0x3e0d6158	0.13806665
115	0xbda2a0c1	-0.079408176
116	0x3e537db9	0.20653428
117	0x3eaac7a9	0.33355454
118	0xbe5c5148	-0.21515381
119	0x3e9419b6	0.28925866
120	0x3d871cbf	0.0659728
121	0xbec568fd	-0.38556662
122	0xbe157abd	-0.14597602
123	0xbe8d1f1c	-0.27562797
124	0x3ca9a2f5	0.020707587
125	0x3e3150ed	0.17316027
126	0x3ec9ef6b	0.39440474
127	0xbf07a24d	-0.52982026
128	0xbe913693	-0.2836195
129	0x3dbda429	0.09259827
130	0xbe28fbca	-0.165023
131	0xbd9c9aed	-0.07646737
132	0xbe5f775d	-0.21822877
133	0xbd888d5a	-0.06667586
134	0xbe0e6003	-0.13903813
135	0x3c94ecd0	0.018179327
136	0xbde2247e	-0.110421166
137	0x3d86f5e7	0.06589871
138	0x3e541a16	0.20713076
139	0xbe473ded	-0.19457217
140	0x3e0760bd	0.13220496
141	0xbd9cd5ff	-0.07658004
142	0xbe3ad8d3	-0.18246774
143	0xbc8ef854	-0.017452396
144	0xbd8b54ce	-0.068032846
145	0x3d782797	0.06058463
146	0x3d44c34d	0.048037816
147	0x3e178885	0.14798172
148	0x3d115936	0.03548547
149	0x3e0a7def	0.13524602
150	0x3e5d4719	0.21609153
151	0xbdc100a3	-0.094239496
152	0x3e63f0ad	0.2225978
153	0x3d896d49	0.067102976
154	0x3d5d2d16	0.053998075
155	0xbb46827d	-0.003029018
156	0xbcd516d2	-0.026011858
157	0x3e96bdcc	0.2944168
158	0x3c91aaae	0.017781582
159	0xbe428ca9	-0.1899897
160	0xbe489646	-0.19588575
161	0xbbd6a8d4	-0.0065508876
162	0x3d9015ee	0.07035433
163	0x3cbd6dff	0.02312374
164	0x3e914ed4	0.28380454
165	0xbe22a3e2	-0.15882829
166	0xbd511e2c	-0.051054165
167	0x3e7ded7b	0.24797623
168	0xbe74b633	-0.23897628
169	0xbde965ae	-0.11396347
170	0x3e935064	0.2877227
171	0x3d8b4038	0.06799358
172	0x3e137fd5	0.14404233
173	0x3e5c358e	0.21504804
174	0xbb53d201	-0.0032321217
175	0x3e728112	0.23682049
176	0xbc8aa6da	-0.016925264
177	0x3daa5368	0.0831669
178	0x3d57c212	0.052675314
179	0xbdf4f22a	-0.11960252
180	0x3e0965ed	0.13417788
181	0xbe05a570	-0.1305139
182	0x3d4cca80	0.049997807
183	0x3d36fe87	0.04467633
184	0xbe9a812f	-0.30176684
185	0x3e989621	0.2980204
186	0x3da318a8	0.07963687
187	0xbe88bc50	-0.2670617
188	0xbeb25d2e	-0.34836715
189	0x3e1721fb	0.14759056
190	0xbc55b30e	-0.013043178
191	0xbdd6cb0d	-0.104879476
192	0xbe119ac1	-0.1421919
193	0x3e249cc4	0.16075426
194	0xbdcc95d6	-0.099895164
195	0xbd7134b5	-0.058888156
196	0x3dbac237	0.09119075
197	0xbe0a372b	-0.13497607
198	0x3d9a2b09	0.075277396
199	0x3de933e5	0.11386851
200	0xbdb11300	-0.08646202
201	0xbe461a67	-0.19346009
202	0xbc927ddc	-0.01788228
203	0x3cb3161a	0.021861125
204	0xb9560f6a	-0.00020414373
205	0x3e653611	0.22383906
206	0xbd0d033e	-0.03442692
207	0x3da0a754	0.07844415
208	0x3e64451b	0.22291987
209	0xbdbbe94b	-0.091753565
210	0x3d3bd323	0.045855653
211	0xbe0b8a64	-0.1362701
212	0x3cbf12a7	0.023324324
213	0x3d0044fa	0.03131578
214	0x3e160ed5	0.14654095
215	0x3e19329b	0.1496071
216	0xbe2055eb	-0.15657775
217	0xbe0af5ed	-0.13570376
218	0x3e786aa3	0.24259429
219	0xbd5ad0f8	-0.053421944
220	0xbea06a11	-0.31330922
221	0xbe4ce96d	-0.2001092
222	0x3bd83e94	0.006599257
223	0xbcfcd74c	-0.03086438
224	0x3de2c2ed	0.110723354
225	0x3cd1812e	0.025574293
226	0xbde73235	-0.11288873
227	0x3c817ea7	0.015807463
228	0xbdc0648a	-0.09394176
229	0xbd1477da	-0.03624711
230	0x3e63ec1f	0.22258042
231	0x3d5fd215	0.05464371
232	0x3e72ea21	0.23722126
233	0x3e870c81	0.26376727
234	0x3cccaacc	0.024983786
235	0x3e8bdbf1	0.2731624
236	0x3da7bfde	0.08190893
237	0xbd374c73	-0.044750642
238	0x3eddd257	0.4332454
239	0xbdc3d894	-0.095627934
240	0xbe799717	-0.24374042
241	0x3e15b71a	0.14620629
242	0x3e14187e	0.14462468
243	0x3d480be3	0.04883946
244	0x3d06a43b	0.032871466
245	0xbe83daae	-0.25752777
246	0x3b57c550	0.0032924004
247	0xbe14b92a	-0.1452376
248	0x3df74a7a	0.12074752
249	0xbe02be00	-0.12767792
250	0x3e036a5b	0.1283354
251	0xbea26d9a	-0.31724244
252	0xbe71ac10	-0.23600793
253	0x3e80490e	0.25055736
254	0x3e85c111	0.2612386
255	0x3e6e4cac	0.23271435

fc1.bias f4 [100]
0	0xbcab9a63	-0.02094764
1	0x3d7ee70e	0.06223207
2	0xbd243f97	-0.040099707
3	0x3c9b293e	0.018940564
4	0x3d0b9481	0.03407717
5	0x3d185ed5	0.037199814
6	0xbd500809	-0.050788913
7	0xbc0ccb31	-0.0085933665
8	0xbc8f1702	-0.017467026
9	0x3c12bb56	0.008955797
10	0x3cc48603	0.023989683
11	0xbd3fcbc9	-0.046825204
12	0xbd5de0d3	-0.054169487
13	0xbd886f0e	-0.06661807
14	0xbcffdf0f	-0.031234292
15	0xbd5c371b	-0.05376349
16	0x3a827130	0.0009951945
17	0xbd309187	-0.043107536
18	0xbcf8e7fe	-0.03038406
19	0xbd510bc5	-0.051036615
20	0xbce613c6	-0.0280856
21	0xbd5a093d	-0.053231467
22	0xbc6b861b	-0.014375235
23	0xbd2e0d08	-0.042492896
24	0x3cfb86d4	0.03070394
25	0x3d335f25	0.04379191
26	0x3d433be7	0.04766455
27	0x3c754f14	0.014972467
28	0x3d89f3bf	0.06735944
29	0xbc73c23e	-0.014877854
30	0x3c1e7046	0.009670323
31	0xbd3f8399	-0.04675636
32	0x3c662058	0.014045797
33	0x3d1dd570	0.038533628
34	0xbcd325e8	-0.025774911
35	0xbd4a7fc7	-0.049438264
36	0x3d5f6d37	0.054547515
37	0x3cced3a6	0.025247406
38	0x3b237965	0.0024944183
39	0xbc17feae	-0.009277029
40	0x3c13426b	0.008988003
41	0x3a40e2d0	0.00073580164
42	0x3cff1b9e	0.031141099
43	0xbc49684e	-0.012292935
44	0xbd6808af	-0.056648906
45	0xbd6d25ad	-0.05789726
46	0x3c8056ea	0.015666444
47	0x3d631237	0.055437293
48	0x3d1ba715	0.03800114
49	0x3cd82656	0.026385467
50	0x3d29005c	0.04126011
51	0xbbf18db4	-0.0073716287
52	0xbd0b1c86	-0.03396275
53	0x3ccb7e40	0.024840474
54	0x3da00934	0.07814255
55	0xbbeca5ac	-0.007221898
56	0xbd377856	-0.044792496
57	0xbd8c432d	-0.0684875
58	0x3d1e4ab8	0.038645476
59	0xbd7c26d0	-0.061560452
60	0x3d6f90cc	0.0584877
61	0xbd7cb820	-0.061699033
62	0x3d503ed3	0.050841164
63	0xbcccc2f4	-0.024995305
64	0x3cc6db12	0.024274383
65	0xbccf938a	-0.025338907
66	0x3d00c282	0.031435497
67	0x3c9a0413	0.01880077
68	0xbd7eb24a	-0.06218175
69	0xbd5f813e	-0.054566614
70	0xbccf0430	-0.025270551
71	0xbd653324	-0.055956975
72	0x3cad71cf	0.021172432
73	0x3d3463be	0.044040434
74	0xbc9d895f	-0.019230543
75	0x3d437b2e	0.047724895
76	0x3cf2692a	0.029591162
77	0xbc2d6135	-0.010582258
78	0xbc037ddc	-0.008025613
79	0x3d23fba8	0.04003492
80	0x3d4b44d5	0.04962619
81	0xbd23ec86	-0.04002049
82	0x3cbbd597	0.022928996
83	0xbd5b4724	-0.05353464
84	0x3d0745bb	0.033025485
85	0x3b4a80e9	0.003089959
86	0xbc66d968	-0.01408992
87	0xbc1c943c	-0.009556826
88	0x3cd0ec34	0.025503255
89	0xbc1bc7e7	-0.00950811
90	0x38ab6829	8.173317e-05
91	0x3c7ebf40	0.015548527
92	0x3d74cf0c	0.059767768
93	0xbaa44032	-0.0012531339
94	0x3cfde607	0.030993475
95	0x3d4e9625	0.050436158
96	0x3ccc46bf	0.024936078
97	0x3bcee495	0.00631387
98	0xbd1f689e	-0.03891813
99	0xbc7aa42f	-0.0152979335

fc2.weight f4 [50, 100]
0	0xbcaa0c88	-0.020757928
1	0x3eaba30c	0.33522832
2	0xbde3287a	-0.11091705
3	0x3e3030a4	0.17206055
4	0x3c7cb87d	0.015424845
5	0xbe845444	-0.2584554
6	0xbef888b1	-0.48541787
7	0x3e5a7499	0.21333541
8	0x3e885081	0.2662392
9	0xbeeda9e9	-0.46418694
10	0x3da209d0	0.07912028
11	0xbe150c67	-0.14555512
12	0xbe62eece	-0.2216141
13	0xbe153f55	-0.1457494
14	0x3e1d7740	0.15377522
15	0x3e340593	0.17580251
16	0x3ded9ec9	0.116025515
17	0x3e14b77d	0.1452312
18	0x3e63a557	0.22231041
19	0xbe14b8e0	-0.14523649
20	0xbd050992	-0.03247983
21	0xbde870d5	-0.11349646
22	0xbdbb8605	-0.091564216
23	0x3d9a2d4e	0.075281724
24	0xbd959cd1	-0.07305301
25	0xbe1188a8	-0.14212286
26	0xbd5897b6	-0.052879058
27	0xbb8b0d87	-0.004243556
28	0xbe5f2a1b	-0.21793406
29	0xbdd81581	-0.105509765
30	0xbe4b4ed8	-0.19854295
31	0x3e895289	0.26820782
32	0xbdcff54c	-0.101542085
33	0x3d708ece	0.05872994
34	0x3ec1bc81	0.3783913
35	0xbed9319c	-0.4242066
36	0xbdb9fcee	-0.09081446
37	0xbc63b6bb	-0.013898547
38	0xbdabf87b	-0.08397003
39	0xbdc65c0a	-0.09685524
40	0x3c53ef5e	0.012935488
41	0x3c21be29	0.009871998
42	0xbe5399bd	-0.20664115
43	0x3d2d395c	0.04229103
44	0x3ed04e45	0.40684715
45	0xbe8fe046	-0.28100795
46	0x3dfdf0b1	0.12399424
47	0xbeadc8e0	-0.33942318
48	0xbcc748b4	-0.02432666
49	0xbebb781d	-0.36615077
50	0xbce35230	-0.027749151
51	0x3f19ba4a	0.6004988
52	0xbdf1e788	-0.11811739
53	0xbc88d104	-0.016701229
54	0x3cc43215	0.023949662
55	0x3ddaea5c	0.10689232
56	0x3d89d7ec	0.06730637
57	0xbe8eae18	-0.27867198
58	0xbde4e7ff	-0.11177062
59	0x3e389588	0.18025792
60	0x3d6faefc	0.058516487
61	0x3b2e4f1c	0.0026597446
62	0xbe4ee81c	-0.2020573
63	0xbe3465b4	-0.17616922
64	0xbe68baf9	-0.22727574
65	0xbd802d56	-0.06258647
66	0xbe19021f	-0.14942215
67	0x3caaee64	0.020865627
68	0xbe6617d2	-0.22470024
69	0xbe0bacbf	-0.13640116
70	0x3b5d0999	0.0033727644
71	0x3dd48721	0.10377336
72	0x3e3df859	0.18551768
73	0xbe9a7b0b	-0.30172
74	0x3e96c2a6	0.2944538
75	0x3ca720b5	0.020401338
76	0x3d4c21b9	0.049836848
77	0x3e85af4c	0.26110303
78	0xbe29649e	-0.16542289
79	0x3f05e3a3	0.5230047
80	0x3e4b7455	0.19868596
81	0x3e859973	0.26093635
82	0x3e52f77f	0.20602225
83	0x3d4d6bb6	0.05015155
84	0x3e80de5b	0.25169644
85	0xbe92e6f6	-0.28691834
86	0xbd99fe39	-0.07519192
87	0xbe538ff2	-0.2066038
88	0xbda7796b	-0.081774555
89	0x3e07e1b4	0.13269693
90	0xbd198565	-0.03748073
91	0xbe84537f	-0.25844952
92	0x3d725859	0.059166286
93	0xbdf254fa	-0.11832614
94	0xbd0d80c9	-0.034546647
95	0x3db43ec1	0.08801032
96	0xbb9a5c16	-0.0047106845
97	0xbed19c85	-0.40939727
98	0xbc58919e	-0.013218312
99	0xbdd7db26	-0.10539846
100	0x3ce230d8	0.027611181
101	0xbe5eeed8	-0.21770799
102	0xbe2c100f	-0.16803001
103	0xbe937ce5	-0.28806224
104	0x3ea3a2f2	0.31960255
105	0x3e0de9f9	0.13858785
106	0xbe23ccd5	-0.15996106
107	0x3df23a8d	0.11827574
108	0x3ace92f2	0.0015760346
109	0x3df43c76	0.119255945
110	0xbe42ec54	-0.19035465
111	0xbe45cb65	-0.1931587
112	0xbf0605f9	-0.52352864
113	0x3cf6b356	0.03011481
114	0xbc45ebef	-0.012080177
115	0xbe446187	-0.19177829
116	0xbd1a3f55	-0.037658054
117	0xbc758153	-0.014984447
118	0xbee5944d	-0.44839707
119	0xbd9c71fa	-0.07638927
120	0xbe3ebc65	-0.18626554
121	0xbac87b5e	-0.0015295555
122	0xbe19252b	-0.14955585
123	0x3d413150	0.04716617
124	0xbcfd79dd	-0.030941898
125	0xbe79e96d	-0.24405451
126	0xbe9d5ffd	-0.30737296
127	0xbe243abd	-0.16038032
128	0x3e9e5a81	0.30928424
129	0xbe53b796	-0.20675501
130	0x3e3409e7	0.17581902
131	0xbbbcd741	-0.005762965
132	0xbd80cdd2	-0.06289257
133	0xbdbc504e	-0.091950044
134	0xbec652c2	-0.38735014
135	0xbe25ea3c	-0.16202635
136	0x3ce26539	0.027636157
137	0x3eebb001	0.46032718
138	0x3ea221b2	0.31666332
139	0x3b9dd892	0.004817077
140	0xbe82236b	-0.25417647
141	0xbdb63a43	-0.08897831
142	0x3eefc4f3	0.46829948
143	0x3e1a7463	0.1508346
144	0x3e1f2a04	0.15543371
145	0xbe6d5d5c	-0.23180145
146	0xbe28788c	-0.16452235
147	0xbab12e86	-0.0013517893
148	0x3e7fb055	0.24969609
149	0xbe61dd91	-0.22057177
150	0x3ee521a6	0.44752234
151	0xbd4e03d9	-0.05029664
152	0xbe8f476a	-0.27984172
153	0x3ea0fd92	0.3144346
154	0xbe1c1ce0	-0.1524539
155	0x3d7e6149	0.062104497
156	0x3d93cd8a	0.07216938
157	0x3d570981	0.052499298
158	0xbe514cb8	-0.20439422
159	0xbde0d9b7	-0.10979026
160	0x3e06481c	0.13113445
161	0xbe61d0f1	-0.22052361
162	0x3d1f76ca	0.038931645
163	0xbe43368d	-0.19063778
164	0xbe7cbe02	-0.24681857
165	0xbd1dbb8d	-0.03850894
166	0x3e264cd2	0.16240242
167	0x3e7ac1ba	0.24487963
168	0xbe14a85a	-0.14517346
169	0xbda21538	-0.079142034
170	0x3d710f16	0.058852278
171	0xbe0b6042	-0.13610938
172	0x3d590d91	0.052991454
173	0xbba8e690	-0.0051544383
174	0x3ecfcd75	0.4058644
175	0xbe8523eb	-0.26003966
176	0xbe5f0a98	-0.21781385
177	0x3e00db63	0.1258369
178	0x3c08e1b5	0.008354594
179	0x3e044a8e	0.12919065
180	0xbd868f83	-0.065703414
181	0x3ed4f706	0.41594714
182	0xbde6fa4f	-0.11278211
183	0xbe5f8121	-0.21826603
184	0xbe8ab132	-0.27088314
185	0x3defb6cb	0.11704787
186	0xbd9f6786	-0.077834174
187	0x3d3e8680	0.046514988
188	0xbebf13dd	-0.37319842
189	0x3f07dd1e	0.53071773
190	0xbe3e532f	-0.1858642
191	0xbcfa783c	-0.03057491
192	0xbcae9149	-0.021309512
193	0xbeae2463	-0.34012136
194	0xbd1ae66c	-0.037817404
195	0xbd9e48c8	-0.07728726
196	0x3e40662c	0.18788975
197	0xbe33804a	-0.17529407
198	0x3e7f43dc	0.2492823
199	0xbe5e7412	-0.21723965
200	0xbd99ab78	-0.07503408
201	0xbeda1827	-0.42596552
202	0xbe898bdf	-0.26864526
203	0x3d6f23da	0.0583838
204	0x3e7388b0	0.23782611
205	0x3e93f298	0.28896022
206	0x3e992737	0.2991273
207	0xbc4fea29	-0.0126901055
208	0x3d13690f	0.035988864
209	0xbeb08f56	-0.34484357
210	0xbe638d8a	-0.22221962
211	0x3e42e4cf	0.19032596
212	0xbe62d71e	-0.22152373
213	0xbe0b90da	-0.13629475
214	0xbe859166	-0.26087493
215	0xbde18ae2	-0.11012818
216	0xbe2a7ebb	-0.16649906
217	0xbe9bbf89	-0.30419567
218	0xbca3c76b	-0.01999255
219	0xbdb1c085	-0.08679298
220	0x3e586046	0.21130475
221	0xbe0c5dee	-0.13707706
222	0x3d2c7029	0.04209915
223	0x3d149d67	0.036282923
224	0xbe70e705	-0.23525627
225	0xbe137f99	-0.14404143
226	0xbc370133	-0.0111697195
227	0x3d615cf0	0.055020273
228	0x3ecf5423	0.4049388
229	0xbe42c778	-0.19021404
230	0x3e722699	0.23647536
231	0x3eadc04c	0.33935773
232	0x3dcf87b9	0.10133309
233	0xbe9337f8	-0.28753638
234	0x3bc45953	0.0059920936
235	0xb9855e2f	-0.0002543791
236	0x3e7f30f8	0.24921024
237	0xbe840329	-0.2578366
238	0x3e2bbbfc	0.16770929
239	0x3dbcb42c	0.092140526
240	0xbe65ea9d	-0.22452779
241	0xbe4f91f5	-0.20270522
242	0x3ea6646d	0.32498494
243	0xbdbe93c1	-0.093055256
244	0xbe82fd86	-0.25584048
245	0x3d949838	0.07255596
246	0x3d646654	0.05576165
247	0x3e8117a8	0.2521336
248	0x3ec84119	0.39112166
249	0xbbc02acc	-0.005864477
250	0x3b513fb3	0.0031928837
251	0x3c6050fc	0.013691183
252	0x3e5a254f	0.21303295
253	0x3e8c8f4d	0.2745308
254	0x3bf60fd6	0.007509212
255	0xbebc644d	-0.36795273

fc2.bias f4 [50]
0	0xbe94ee27	-0.29087946
1	0x3d27c80a	0.040962256
2	0x3dfac5d5	0.12244765
3	0x3e82f448	0.25576997
4	0xbe57824b	-0.21045797
5	0x3e04e7e6	0.12979087
6	0x3e2a6d1b	0.16643183
7	0x3df7eb62	0.121054426
8	0xbe9c7004	-0.3055421
9	0xbe6331b2	-0.22186926
10	0x3d5dd1ae	0.054155044
11	0xbeb1b4ff	-0.34708402
12	0xbf028593	-0.5098507
13	0xbe7acf10	-0.2449305
14	0xbea9be12	-0.33152825
15	0x3d98843b	0.07447096
16	0xbdcc245a	-0.09967871
17	0xbe911e64	-0.283435
18	0xbc62cc4e	-0.013842655
19	0xbed96dfe	-0.4246673
20	0xbeedcc09	-0.4644473
21	0x3dbecdd2	0.09316601
22	0xbdf41910	-0.11918843
23	0xbf0c9d30	-0.5492735
24	0x3da8c7c6	0.08241229
25	0xbcf14975	-0.029453972
26	0x3e7b6ae7	0.24552499
27	0xbe62e1d9	-0.22156467
28	0xbef2c9e7	-0.47419664
29	0x3e7f0ef5	0.2490805
30	0x3e5752c7	0.21027671
31	0xbd8047c6	-0.0626369
32	0xbd425d69	-0.047452364
33	0xbf14bc05	-0.58099395
34	0xbe2344d5	-0.15944226
35	0xbbe7bc2c	-0.0070719924
36	0xbe8920f3	-0.2678295
37	0xbeaffd3e	-0.34372896
38	0xbdf1f95c	-0.1181514
39	0x3d73bd9e	0.059507005
40	0xbe0b1cb9	-0.13585176
41	0xbeae88be	-0.340887
42	0x3e0a4a19	0.13504829
43	0xbd07a7b3	-0.033118915
44	0xbe33ac46	-0.17546186
45	0xbe26667a	-0.16250029
46	0xbcc6b39d	-0.024255568
47	0xbdcfc14d	-0.10144291
48	0xbdc25ea6	-0.09490709
49	0x3e572e67	0.21013795

fc3.weight f4 [1, 50]
0	0xbe62b329	-0.22138657
1	0x3e88ca13	0.2671667
2	0xbe6a61ec	-0.22888917
3	0x3e844b5b	0.25838742
4	0xbec521e9	-0.38502434
5	0x3e8edd53	0.27903232
6	0x3e727e99	0.23681106
7	0x3e88cf59	0.26720694
8	0xbe73596e	-0.23764583
9	0xbec2906a	-0.38000804
10	0x3e7cafc3	0.24676423
11	0xbea61662	-0.32438952
12	0xbe82724b	-0.25477824
13	0xbf0e5ed3	-0.5561344
14	0xbe59ca28	-0.21268523
15	0x3e97a654	0.29619086
16	0xbe814103	-0.25244913
17	0xbe6cb9a4	-0.23117691
18	0xbe4e74f9	-0.20161809
19	0xbe7490bc	-0.23883337
20	0xbece6336	-0.40310067
21	0x3ea4d151	0.32190946
22	0x3ebafcb5	0.36520925
23	0xbe8c4101	-0.27393344
24	0xbe7b8d8e	-0.24565718
25	0x3e770cee	0.24126026
26	0x3e76a5d6	0.24086699
27	0x3ebcd2ad	0.36879483
28	0xbebcdc01	-0.368866
29	0x3ea802fa	0.3281477
30	0x3e64da4b	0.22348897
31	0xbe379ba6	-0.17930469
32	0xbe453457	-0.19258247
33	0xbe8c7c74	-0.274387
34	0x3ea694ba	0.32535344
35	0xbe5a072e	-0.21291801
36	0xbea0b0b7	-0.31384823
37	0xbeadd76d	-0.3395342
38	0xbe498218	-0.19678533
39	0x3eb34a44	0.35017598
40	0xbe8c28e2	-0.2737494
41	0xbe98e239	-0.29860094
42	0xbe390516	-0.18068346
43	0xbe5bca86	-0.21463975
44	0xbe3d9a77	-0.18515955
45	0xbe7edb0b	-0.24888246
46	0x3e59b038	0.21258628
47	0x3ea9db62	0.33175188
48	0x3eb88f3f	0.36046788
49	0x3ea7d3dd	0.32778826
