method/mymodel-captions/save/1557891887/1557891887/dis_model_params.pkl (torch_old, 124322 bytes, 5 tensors)

fc1.weight f4 [100, 256]
0	0xbd264023	-0.04058851
1	0x3cdfc9a9	0.027317839
2	0xbd4493da	-0.047992565
3	0xbd0f262c	-0.034948513
4	0xbc0695a6	-0.00821439
5	0x3d7844e2	0.060612567
6	0xbd3b895a	-0.045785286
7	0xbd14a64e	-0.036291413
8	0x3e24cb1c	0.16093105
9	0xbd97984c	-0.07402095
10	0x3ddce866	0.10786514
11	0x3e063678	0.13106716
12	0x3d41c5fe	0.04730796
13	0xbc6c187a	-0.014410133
14	0x3c8917c3	0.016734963
15	0x3d823c3d	0.06359146
16	0x3d82b9a9	0.06383068
17	0x3e368285	0.17823227
18	0x3d3cffbd	0.04614233
19	0xbdcc87ad	-0.099868156
20	0x3cea78f5	0.02862213
21	0xbded7c53	-0.115959786
22	0x3e00a51a	0.12562981
23	0xbc9094a7	-0.017649008
24	0xbe5703a0	-0.20997477
25	0xbd94d69c	-0.07267496
26	0x3c906714	0.017627276
27	0xbc866df7	-0.016409857
28	0x3db813d1	0.08988155
29	0x3d37bec1	0.04485965
30	0xbd45b791	-0.048270766
31	0x3d6ebd06	0.058285736
32	0xbd3031f0	-0.043016374
33	0xbe2658ef	-0.16244863
34	0x3d859b35	0.06523744
35	0x3cdf8e8d	0.027289653
36	0xbdce3250	-0.1006819
37	0x3d93afb5	0.07211248
38	0x3df1786d	0.117905475
39	0x3dd9b96b	0.10631069
40	0xbdf41de7	-0.11919766
41	0xbe3dcefc	-0.1853599
42	0x3ce8bd6a	0.028410632
43	0x3d1705a6	0.03687062
44	0x3e0e02f4	0.13868314
45	0x3d228057	0.039673176
46	0xbcf6e20a	-0.03013708
47	0x3cd0ae80	0.025473833
48	0x3d22a925	0.03971209
49	0x3da7a70b	0.08186158
50	0xbdb3af66	-0.08773689
51	0xbda3f39c	-0.08005449
52	0x3d53662d	0.051611114
53	0x3d8efa11	0.0698129
54	0xbd9e12f6	-0.0771846
55	0x3dff4906	0.124651
56	0x3cb022d5	0.021500984
57	0x3cb8ee55	0.022574583
58	0xbdb1ee81	-0.08688069
59	0xbdfa0aa5	-0.122090615
60	0xbc6d9e2f	-0.014503046
61	0x3d3eddbe	0.04659819
62	0x3d4fd41e	0.0507394
63	0xbc6e6889	-0.01455129
64	0x3d8edad5	0.06975333
65	0xbbf4e840	-0.0074739754
66	0xbccdadb7	-0.025107248
67	0xbbc99d51	-0.006152787
68	0xbd2c432f	-0.04205626
69	0x3ccdf8db	0.025143078
70	0x3cb17333	0.021661377
71	0xbd426929	-0.04746357
72	0x3db31948	0.087450564
73	0xbd9ccf84	-0.07656768
74	0xbcb3c363	-0.021943754
75	0x3c689041	0.014194549
76	0xbd8a9b77	-0.06767934
77	0x3d8cf84e	0.06883298
78	0xbcd3e5fc	-0.025866501
79	0xbc5f6d2f	-0.013636871
80	0x3d8782e5	0.06616763
81	0x3c847d92	0.016173158
82	0x3d57a4f9	0.052647565
83	0x3c83e50b	0.016100427
84	0xbde145d0	-0.10999644
85	0xbd1eddcd	-0.038785744
86	0xbbb6b10a	-0.005575304
87	0xbc88d64c	-0.016703747
88	0xbc3d678d	-0.011560333
89	0x3d3926e8	0.04520312
90	0xbc3716b5	-0.011174847
91	0xbc9185e9	-0.017764049
92	0xbd134910	-0.03595835
93	0x3d1135c6	0.035451673
94	0xbdb30b53	-0.08742394
95	0x3cb220a5	0.021744082
96	0x3d99f4f5	0.07517425
97	0x3c8c6d4e	0.017141964
98	0x3da3350a	0.07969101
99	0xbda6dd4a	-0.08147676
100	0xbd461138	-0.048356265
101	0xbd30ea31	-0.043192092
102	0xbdee10eb	-0.116243206
103	0x3ddc60e4	0.10760668
104	0x3c6e2973	0.014536249
105	0x3d8b461b	0.06800481
106	0xbd7534bc	-0.059864745
107	0x3d1a263b	0.037634116
108	0xbe0f374e	-0.13985941
109	0xbcd67265	-0.026177594
110	0xbde1621f	-0.11005043
111	0xbd82a8fa	-0.06379886
112	0x3d42187b	0.047386628
113	0x3db5364d	0.08848248
114	0x3d93f265	0.072239675
115	0x3d256876	0.040382825
116	0x3dcf4ffb	0.10122677
117	0xbbe1f1f3	-0.0068952977
118	0xbda07b41	-0.07836009
119	0xbcfb7d89	-0.030699508
120	0xbd8b34fe	-0.06797217
121	0xbcb21aed	-0.021741355
122	0x3d056d72	0.03257508
123	0x3e15d03e	0.1463022
124	0xbe271625	-0.16317041
125	0xbddf93a9	-0.10916836
126	0xbd7cca56	-0.0617164
127	0x3c9e1ce3	0.019300884
128	0xbc9fb64e	-0.01949611
129	0x3c1e88b8	0.009676151
130	0x3c8e1c89	0.017347591
131	0xbd975320	-0.07388902
132	0x3d41494e	0.04718905
133	0xbd409e6d	-0.047026087
134	0x3da34a64	0.07973173
135	0x3c5e618c	0.013573062
136	0x3d7cb0a6	0.061691903
137	0xbdaa2a15	-0.08308808
138	0xbbb346f3	-0.0054711043
139	0x3cea1b1b	0.028577378
140	0xbd70ca9a	-0.058786966
141	0x3d7352d6	0.05940517
142	0xbd5a72e9	-0.053332243
143	0xbdd0f372	-0.102026835
144	0x3e2b1fde	0.16711375
145	0xbd24206e	-0.04006999
146	0x3db5ef10	0.08883488
147	0x3e23a777	0.15981852
148	0xbd8d8a63	-0.06911161
149	0xbd571a95	-0.052515585
150	0x3c2b10c0	0.010441005
151	0xbd93e024	-0.07220486
152	0x3d38cce0	0.04511726
153	0x3dc14d85	0.09438614
154	0xbd543099	-0.05180416
155	0xbc907502	-0.017633919
156	0xbc8b5d7c	-0.01701235
157	0x3d4119ae	0.04714363
158	0xbd051189	-0.032487426
159	0x3b66ea02	0.0035234694
160	0x3c3e8205	0.011627679
161	0xbdb49c02	-0.08818819
162	0x3d35d7af	0.044395145
163	0xbcfaf5b5	-0.03063474
164	0x3c2dcbf3	0.010607707
165	0xbd052bdb	-0.032512527
166	0x3dbe87a2	0.09303214
167	0x3d1ab4a1	0.037769917
168	0xbe10bb1a	-0.14133874
169	0xbd4fecda	-0.05076299
170	0xbd5cd1c4	-0.053910986
171	0xbd66b599	-0.05632553
172	0x3d3d4d86	0.04621651
173	0x3cbc1e12	0.022963557
174	0x3ccc3900	0.024929523
175	0x3dd89575	0.10575382
176	0x3c21b774	0.009870399
177	0x3d81c9e7	0.06337338
178	0xbdf3fb08	-0.11913115
179	0x3c7c2e1a	0.015391851
180	0x3d56552a	0.052327313
181	0xbd7db130	-0.061936557
182	0xbcc7fafc	-0.02441167
183	0xbddc0504	-0.10743144
184	0x3ceef53c	0.029169671
185	0xbd09f115	-0.03367718
186	0x3d4a4c6b	0.049389284
187	0x3d1cb72d	0.038260628
188	0xbd9d69e5	-0.076862134
189	0x3c8ac574	0.016939856
190	0x3db7a113	0.08966269
191	0xbd8df4d8	-0.06931466
192	0xbd1a91bf	-0.03773665
193	0xbc94d02b	-0.018165668
194	0xbe03847e	-0.1284351
195	0xbdea0414	-0.11426559
196	0xbe1f5502	-0.15559772
197	0xbe193699	-0.14962234
198	0xbdd507f5	-0.10401908
199	0xbccb2fd4	-0.02480308
200	0x3d044112	0.03228862
201	0xbd509781	-0.050925735
202	0x3d496b49	0.04917458
203	0xbd97c066	-0.07409744
204	0xbd5e134e	-0.05421763
205	0x3d3ce37a	0.046115376
206	0xbdc5ffbb	-0.09667917
207	0xbd20e38e	-0.039279513
208	0x3db30ce0	0.0874269
209	0x3d164146	0.036683343
210	0xbca03c5b	-0.01956003
211	0xbd047212	-0.03233535
212	0xbd6dc465	-0.058048625
213	0x3de51ecf	0.11187517
214	0xbb1d27d8	-0.0023980048
215	0x3d876119	0.06610317
216	0x3e1129bd	0.14176078
217	0xbe0ee1db	-0.13953345
218	0xbbf49458	-0.007463973
219	0xbd948b48	-0.07253128
220	0x3d04e967	0.032449152
221	0xbc1e3bf0	-0.009657845
222	0x3e22d215	0.15900452
223	0xbb8f83f4	-0.0043797437
224	0x3ca42df1	0.020041438
225	0x3ce483bc	0.027894847
226	0xbda20f0b	-0.079130255
227	0x3dc3ba29	0.095569916
228	0xbd7723d4	-0.060336903
229	0x3b31247f	0.002702981
230	0xbd71f369	-0.059070025
231	0x3dcd3bc0	0.10021162
232	0x3db66e55	0.08907763
233	0xbb1523f6	-0.002275703
234	0xbcdaafca	-0.02669515
235	0x3d2709ff	0.040781017
236	0xbd952378	-0.07282156
237	0x3d6eea2a	0.058328785
238	0xbcf800fa	-0.030273903
239	0x3ddb75fd	0.10715864
240	0x3dd8ac15	0.10579697
241	0xbd7308ce	-0.05933457
242	0xbde39b89	-0.1111365
243	0xbc8344c2	-0.016023997
244	0xbccad843	-0.024761325
245	0x3dc4b376	0.09604542
246	0x3de5944d	0.11209927
247	0xbc6ec6ae	-0.014573736
248	0xbd20e861	-0.039284114
249	0x3e043d80	0.12914085
250	0x3bb31649	0.005465303
251	0xbcfbce81	-0.030738117
252	0xbc6da246	-0.014504021
253	0x3db865cf	0.090037934
254	0xbdd0c673	-0.10194101
255	0x3e27ebc4	0.16398531

fc1.bias f4 [100]
0	0xbcb20c5a	-0.021734405
1	0xbcec5ed9	-0.02885382
2	0xbc74bf2d	-0.014938158
3	0x39570ac1	0.00020508004
4	0xbbda4e67	-0.0066621783
5	0xbd361b3a	-0.04445956
6	0x3d9b0d3f	0.07570886
7	0xbd2b395c	-0.04180275
8	0xbcb6dc6e	-0.022321906
9	0x3d101e2b	0.03518502
10	0xbb7e3799	-0.0038790463
11	0xbd6c6e68	-0.05772248
12	0x3cb42baa	0.021993477
13	0x3c716514	0.014733572
14	0x3c90af97	0.017661853
15	0x3d426cee	0.047467165
16	0xbca598da	-0.020214487
17	0xbcb5b9bc	-0.022183292
18	0x3d291af4	0.04128547
19	0x3d1b8e57	0.037977543
20	0xbc55d0fd	-0.013050315
21	0x3d98979d	0.07450793
22	0x3be63373	0.007025176
23	0x3c8c0980	0.017094374
24	0x3d18ef04	0.037337318
25	0xbcde076d	-0.02710315
26	0x3b99a460	0.0046887845
27	0xbd53170d	-0.051535655
28	0x3c928e3a	0.017890085
29	0xbda35f69	-0.079771824
30	0xbd12dc81	-0.03585482
31	0x3d39e9e1	0.04538906
32	0x3d4bcfd9	0.049758766
33	0xbd64d048	-0.055862695
34	0x3bed5e18	0.007243883
35	0x3d8a7fbb	0.06762644
36	0x36c74f66	5.9399053e-06
37	0x3b635057	0.0034685337
38	0xbd17865c	-0.03699337
39	0x3c83beb4	0.016082145
40	0xbd8cab31	-0.0686859
41	0xbdc91082	-0.09817602
42	0xbcbe28d6	-0.023212831
43	0xbb192a8d	-0.002337131
44	0xbda51ade	-0.08061765
45	0xbc01b2e4	-0.007916186
46	0x3d5cd41b	0.053913217
47	0xba9847fe	-0.0011618135
48	0x3d916f9c	0.07101366
49	0xbac09df9	-0.0014695517
50	0x3cf86ecb	0.030326268
51	0x3c9263df	0.017869888
52	0x3c8da0b1	0.017288538
53	0x3d6df55b	0.058095317
54	0x3d3f9f67	0.046782877
55	0xbb91f95f	-0.004454776
56	0xba0bd5e8	-0.0005334304
57	0x3d789911	0.06069285
58	0x3d966874	0.073441416
59	0x3d6ec45d	0.058292735
60	0x39e74d0c	0.00044117158
61	0xbc6dd89d	-0.014516977
62	0x3d18ce98	0.0373064
63	0x3dbba2f1	0.09161938
64	0xbdb741fb	-0.08948132
65	0x3d2a4741	0.04157186
66	0xbd8ac05f	-0.06774973
67	0xbc8bbac2	-0.017056827
68	0x3cbb7377	0.022882206
69	0x3ccbcdd0	0.024878412
70	0xbd07a52c	-0.033116505
71	0x3d9e0dc9	0.07717473
72	0xbd2364d5	-0.039891083
73	0xbd0f43a0	-0.0349766
74	0xbc8f63a4	-0.017503567
75	0x3d4b0cd0	0.049572766
76	0x3d93f4c7	0.07224422
77	0xbd98c4fb	-0.07459446
78	0x3c410501	0.011780978
79	0xbd0c32b0	-0.034228027
80	0x3d6dc9c9	0.058053765
81	0x3d46a49d	0.04849683
82	0xbd3933cf	-0.045215424
83	0x3cedb445	0.029016623
84	0x3d7836bb	0.06059907
85	0xbd22f34e	-0.039782815
86	0x3ca56ec8	0.020194426
87	0x3d7e1aa0	0.06203711
88	0x3d2d1791	0.042258803
89	0xbcbcd05c	-0.023048572
90	0x3c5b20bd	0.013374505
91	0x3c527489	0.012845167
92	0xbd6f2d18	-0.058392614
93	0x3d09a004	0.03359987
94	0x3d46ad2d	0.048504997
95	0x3cf35915	0.029705564
96	0xbd94c2b2	-0.07263698
97	0x3ac17189	0.0014758568
98	0xbc2eb6c9	-0.010663697
99	0xbd971524	-0.07377079

fc2.weight f4 [50, 100]
0	0x3dadd69d	0.084882
1	0x3d1779f9	0.036981557
2	0xbb7c86f0	-0.0038532577
3	0x3d6186f8	0.055060357
4	0x3de9e831	0.1142124
5	0x3cc96bd6	0.024587553
6	0x3d6b9fee	0.057525568
7	0x3ddb6399	0.10712356
8	0x3e065050	0.13116574
9	0xbdb10ac4	-0.086446315
10	0x3d84ef5d	0.064909674
11	0xbc5a88d6	-0.013338288
12	0xbdd689cf	-0.10475504
13	0x3de1c112	0.11023153
14	0xbd83d150	-0.064364076
15	0xbe738436	-0.23780903
16	0x3da15859	0.07878179
17	0x3cf59bfb	0.029981604
18	0x3e1a7952	0.15085343
19	0xbc93af90	-0.01802805
20	0x3cfe0e6f	0.031012742
21	0xbe02a056	-0.12756476
22	0xbd18bea3	-0.03729118
23	0xbe9ab499	-0.3021591
24	0xbe106abc	-0.14103216
25	0xbc8c8a3f	-0.017155765
26	0xbc8b6c85	-0.01701952
27	0xbdd5a129	-0.104311295
28	0xbd6f3c1a	-0.058406927
29	0x3e6e4b92	0.23271015
30	0xbcb72ed6	-0.0223612
31	0xbdf31152	-0.11868538
32	0x3de09080	0.10965061
33	0xbc73cbed	-0.014880163
34	0x3d9a548e	0.07535659
35	0x3bf0e4e2	0.0073515037
36	0x3db74f40	0.089506626
37	0x3e638a85	0.2222081
38	0x3d7c59bf	0.061609026
39	0xbeac04d4	-0.33597434
40	0x3e4a3a4c	0.19748801
41	0x3cc6c8ab	0.024265608
42	0xbdf33672	-0.11875619
43	0x3df04f03	0.1173382
44	0x3e0f179d	0.13973852
45	0xbdef9cf3	-0.116998576
46	0xbd7a3ad5	-0.061091263
47	0x3df40ffd	0.11917112
48	0x3b953392	0.004553267
49	0xbe18a761	-0.149076
50	0xbe48c22d	-0.19605322
51	0xbe5efe72	-0.2177675
52	0xbd4fc72c	-0.050727054
53	0xbd4d232c	-0.05008237
54	0xbdff10e2	-0.12454392
55	0xbd488e66	-0.048963927
56	0xbde0ee51	-0.10982955
57	0x3d20a1cd	0.039216805
58	0xbd768397	-0.060184088
59	0xbe0fdeb2	-0.14049795
60	0x3d919681	0.071087845
61	0xbe1409b6	-0.1445683
62	0xbd904b60	-0.07045627
63	0xbc713088	-0.014721043
64	0xbe1ab918	-0.1510967
65	0x3ddb1d72	0.106989756
66	0x3e34e643	0.17665963
67	0xbe51fc00	-0.20506287
68	0xbe36300f	-0.1779177
69	0xbe22694b	-0.15860479
70	0x3daf194e	0.08549748
71	0xbdba242d	-0.09088931
72	0x3e53bcc1	0.20677473
73	0x3e1de503	0.15419392
74	0xbcbfe05c	-0.023422413
75	0x3d0c2d8f	0.034223136
76	0xbde02744	-0.10944989
77	0xbe07d6c6	-0.13265523
78	0xbe4c1da8	-0.19933188
79	0x3d35bbc6	0.044368528
80	0xbeb9ff99	-0.36327818
81	0xbcc21a80	-0.023694277
82	0xbd61a09a	-0.055084802
83	0x3ddecffa	0.10879512
84	0xbdf40dfb	-0.11916729
85	0xbd99ab8e	-0.075034246
86	0x3d44902a	0.047989048
87	0x3dca189d	0.09867976
88	0x3e185e66	0.1487976
89	0x3d0d25ca	0.034459867
90	0x3da1c91f	0.07899689
91	0xbd473d4d	-0.048642445
92	0x3d86bffa	0.065795854
93	0xbe0c26f1	-0.1368673
94	0xbdda7f31	-0.10668791
95	0xbba9fb4b	-0.005187427
96	0x3ba5aacb	0.0050557605
97	0xbd50be05	-0.050962467
98	0xbe088aed	-0.13334246
99	0x3e3c1b86	0.18369874
100	0x3e629295	0.22126229
101	0x3e09c3c2	0.13453582
102	0xbcc3d3b1	-0.023904653
103	0x3b9a35bd	0.004706113
104	0xbde9ca03	-0.11415484
105	0xbd695d97	-0.05697402
106	0xbd8b9ba3	-0.06816795
107	0x3c879303	0.016549593
108	0xbd6133de	-0.054981105
109	0x3d9a23b2	0.075263396
110	0xbe92f25c	-0.2870053
111	0x3e0021be	0.12512872
112	0xbd98b215	-0.074558415
113	0x3de4ed08	0.111780226
114	0x3d7b0073	0.061279725
115	0xbd3cf15a	-0.04612861
116	0xbe7129da	-0.23551121
117	0x3d18c5fb	0.037298184
118	0xbe1c7421	-0.15278675
119	0x3c936618	0.017993018
120	0x3dbddc26	0.092705056
121	0x3da55d71	0.08074463
122	0xbd01088e	-0.0315023
123	0xba014bdf	-0.0004932265
124	0x3e003a1a	0.12522164
125	0xbc7a5863	-0.015279862
126	0xbe05d527	-0.13069592
127	0x3e259c1e	0.16172835
128	0xbe472131	-0.19446255
129	0xbd40c022	-0.047058232
130	0x3da3d824	0.0800021
131	0x3bd9e161	0.0066491817
132	0xbe15d33e	-0.14631364
133	0xbe672653	-0.22573213
134	0xbe6c7d64	-0.23094708
135	0xbd9dda2d	-0.07707629
136	0x3c0d8aad	0.00863902
137	0x3d2cd208	0.04219249
138	0x3d4489a1	0.047982816
139	0xbe930e91	-0.2872205
140	0xbbbe5f19	-0.0058096764
141	0xbcb83c74	-0.022489764
142	0xbe86396d	-0.26215687
143	0x3e126932	0.14297941
144	0x3e447a02	0.19187167
145	0xbe326c78	-0.1742419
146	0x3e65feab	0.2246043
147	0xbd782cd0	-0.06058961
148	0x3d22405f	0.03961217
149	0x3e09d4ea	0.13460127
150	0x3da18c35	0.078880705
151	0xbcfd377b	-0.030910244
152	0xbd80f140	-0.06296015
153	0xbd1f4e01	-0.03889275
154	0xbe1a13da	-0.15046635
155	0x3cd14bd8	0.02554886
156	0x3e2c1340	0.16804218
157	0xbdd8cbf8	-0.10585779
158	0xbcab94ba	-0.020944942
159	0xbe729d9d	-0.23692937
160	0xbd4291df	-0.047502395
161	0x3c8106df	0.015750347
162	0xbdedf5bd	-0.116191365
163	0x3e8ab6e4	0.2709266
164	0x3e2c8c6c	0.16850442
165	0xbdb8047b	-0.089852296
166	0x3d85c55a	0.065317824
167	0x3dc9ad6b	0.0984753
168	0xbe88c8f0	-0.26715803
169	0x3cd12332	0.025529478
170	0x3ce26f01	0.027640821
171	0xbc79d632	-0.015248822
172	0xbe68ad18	-0.2272228
173	0xbbf4724a	-0.0074599134
174	0x3e49547a	0.19661132
175	0x3d08d4d5	0.033406097
176	0x3d9234aa	0.07138951
177	0xbcd400f4	-0.02587936
178	0x3e6d905c	0.231996
179	0xbd958c0b	-0.07302102
180	0x3db3d532	0.08780898
181	0x3dcdb096	0.10043447
182	0xbe46b30c	-0.19404238
183	0x3e08e79f	0.13369606
184	0x3c231b6d	0.009955269
185	0xbda7ce0c	-0.08193597
186	0xbd2eb668	-0.042654425
187	0x3e435bfc	0.19078058
188	0x3ddb3b3c	0.107046574
189	0xbceef626	-0.029170107
190	0x3df586f4	0.11988631
191	0x3e0c39c1	0.13693906
192	0xbe9ad907	-0.30243704
193	0x3d2ef975	0.04271837
194	0x3d342ab2	0.04398603
195	0xbca96543	-0.020678168
196	0xbe50000c	-0.20312518
197	0xbd3e475e	-0.04645478
198	0xbde101ba	-0.109866574
199	0xbdeaab41	-0.11458445
200	0xbc50d912	-0.012747066
201	0x3c82f95d	0.015988046
202	0xbcddd69b	-0.02707987
203	0xbe33b99c	-0.17551273
204	0xbd24dc14	-0.040248945
205	0x3e02fc68	0.12791598
206	0xbde0645b	-0.10956641
207	0xbe6c7802	-0.23092654
208	0x3d8b24be	0.067941174
209	0xbe213ac8	-0.1574508
210	0xbdc57669	-0.096417256
211	0xbd098bff	-0.033580776
212	0xbd95cfec	-0.073150486
213	0xbc9d7117	-0.019218965
214	0x3d98e0e5	0.0746477
215	0x3d2ed7d6	0.042686306
216	0x3c7a5c15	0.015280743
217	0x3e086138	0.13318336
218	0xbe8e2852	-0.27765137
219	0x3e09a520	0.13441896
220	0x3e5d05d5	0.21584256
221	0xbea04c7b	-0.3130835
222	0xbea9ad86	-0.331402
223	0x3cb8c1dd	0.022553379
224	0x3d939aee	0.07207285
225	0x3e4c0149	0.19922365
226	0xbcddf850	-0.027095944
227	0x3ca68976	0.020329218
228	0x3dbf9e46	0.0935636
229	0x3e0d40e3	0.13794284
230	0x3d82cae3	0.06386354
231	0x3e32100a	0.17388931
232	0xbdbc98ca	-0.0920883
233	0x3dbfd338	0.09366459
234	0x3de82ff6	0.11337273
235	0xbe2e11f9	-0.16999044
236	0x3cf8c674	0.030368067
237	0x3e1225e7	0.14272271
238	0xbc62bb1c	-0.013838556
239	0xbdfd712c	-0.123751014
240	0xbdac6728	-0.08418113
241	0xbd4b0721	-0.049567346
242	0x3dc0465b	0.09388419
243	0xbe2c81c3	-0.16846375
244	0x3d90747b	0.07053467
245	0x3e35a1b5	0.17737468
246	0xbc6cd969	-0.0144561315
247	0x3dc272ec	0.09494576
248	0x3e0a435f	0.13502263
249	0x3e1ba02e	0.15197822
250	0xbe43acb3	-0.19108848
251	0x3ddcf1b0	0.10788286
252	0x3dd03f0e	0.10168277
253	0x3e15fd1a	0.14647332
254	0x3d348dba	0.044080473
255	0xbd90b6db	-0.07066127

fc2.bias f4 [50]
0	0xbcf946e1	-0.030429306
1	0x3d10f180	0.035386562
2	0xbdcdf661	-0.10056759
3	0xbdacade1	-0.08431602
4	0xbc8c23a9	-0.017106848
5	0x3d7e99a3	0.06215824
6	0xbdd32613	-0.103099965
7	0x3c5bf6bd	0.013425526
8	0xbdd36966	-0.103228375
9	0xbe0a450e	-0.13502905
10	0xbd2f8aab	-0.042856853
11	0xbdb4959b	-0.088175975
12	0xbd9aa19e	-0.07550357
13	0xbd1a95b0	-0.03774041
14	0xbb960f9d	-0.004579498
15	0xbdbdb963	-0.09263875
16	0xbcf71c9e	-0.030165013
17	0xbd27d54e	-0.040974908
18	0xbd3be8e6	-0.045876406
19	0xbd034912	-0.032052107
20	0xbe2882e3	-0.1645618
21	0xbe01e6ea	-0.12685743
22	0xbd2a98e1	-0.041649703
23	0x3c3097e1	0.010778398
24	0x3e12f27c	0.14350313
25	0xbcbd9e92	-0.023146901
26	0xbe0acc21	-0.13554431
27	0xbdaf22df	-0.08551573
28	0xbdca3b84	-0.09874633
29	0x3de8d5b2	0.11368884
30	0xbdc0de79	-0.09417433
31	0x3cc2575f	0.023723302
32	0xbd4119d1	-0.04714376
33	0x3d4946dc	0.049139842
34	0xbe27c717	-0.1638454
35	0xba27b53b	-0.000639755
36	0xbbeac7a8	-0.007164914
37	0x3da71953	0.08159127
38	0xbdddd76c	-0.10832104
39	0xbddc0e5d	-0.10744927
40	0x3d14e650	0.036352456
41	0xbd5bac4e	-0.05363112
42	0x3d5493be	0.05189871
43	0x3dfef2eb	0.12448677
44	0xbcb009cd	-0.021489048
45	0x3de3a579	0.11115546
46	0xbc785a7e	-0.015158294
47	0x3cb21dd3	0.021742737
48	0xbb97a257	-0.0046275067
49	0x3af587b6	0.0018732462

fc3.weight f4 [1, 50]
0	0xbf00f6c8	-0.5037656
1	0x3f0b84e1	0.5449963
2	0x3f119a26	0.56875837
3	0xbf098566	-0.53719175
4	0xbecc3b41	-0.39888957
5	0xbf212915	-0.6295331
6	0x3ef362e3	0.47536382
7	0xbf04b035	-0.5183137
8	0x3f1cb209	0.6120916
9	0x3f037aa1	0.5135899
10	0x3ea7694c	0.32697523
11	0x3f29a5c5	0.6626857
12	0x3f24ec8e	0.64423454
13	0x3f0ada68	0.5423951
14	0xbf0f4e90	-0.5597925
15	0x3f055fc1	0.52099234
16	0xbf13d9c9	-0.5775419
17	0x3f06e9eb	0.5270068
18	0x3f218d35	0.6310609
19	0xbeefbbb7	-0.46822903
20	0x3efdd86c	0.4957918
21	0x3f1d847f	0.615303
22	0x3ee3d58c	0.4449886
23	0x3eeaef24	0.45885575
24	0xbf09e841	-0.53870016
25	0xbeaaa847	-0.3333151
26	0x3f097375	0.536918
27	0x3f0f8048	0.56055117
28	0xbf166e0b	-0.5876166
29	0xbeed8c2e	-0.4639601
30	0x3f117bfc	0.5682981
31	0xbee8c3fd	-0.45462027
32	0x3ea7079e	0.32623
33	0x3f08c09b	0.5341889
34	0x3f02f60a	0.51156676
35	0x3f04ad22	0.5182668
36	0x3efec100	0.49756622
37	0xbf111219	-0.5666824
38	0x3f240086	0.640633
39	0x3f0b3203	0.54373187
40	0x3e60a805	0.21939094
41	0x3efd01c6	0.49415416
42	0xbefa852b	-0.48929724
43	0xbeecaecd	-0.46227112
44	0xbf06e4be	-0.5269278
45	0xbf1e66c2	-0.61875546
46	0x3f02386e	0.50867355
47	0xbeef0921	-0.46686652
48	0x3ed1772d	0.40911236
49	0x3ef46e2d	0.47740307
